{"architecture":{"class_name":"Functional","config":{"name":"sequential","layers":[{"class_name":"InputLayer","config":{"batch_input_shape":[null,null,52],"dtype":"float32","sparse":false,"ragged":false,"name":"input_1"},"name":"input_1","inbound_nodes":[]},{"class_name":"LSTM","config":{"name":"lstm","trainable":true,"batch_input_shape":[null,null,52],"dtype":"float32","return_sequences":true,"return_state":false,"go_backwards":false,"stateful":false,"unroll":false,"time_major":false,"units":64,"activation":"tanh","recurrent_activation":"sigmoid","use_bias":true,"kernel_initializer":{"class_name":"GlorotUniform","config":{"seed":null},"shared_object_id":1},"recurrent_initializer":{"class_name":"Orthogonal","config":{"gain":1.0,"seed":null},"shared_object_id":2},"bias_initializer":{"class_name":"Zeros","config":{},"shared_object_id":3},"unit_forget_bias":true,"kernel_regularizer":null,"recurrent_regularizer":null,"bias_regularizer":null,"activity_regularizer":null,"kernel_constraint":null,"recurrent_constraint":null,"bias_constraint":null,"dropout":0.0,"recurrent_dropout":0.0,"implementation":2},"name":"lstm","inbound_nodes":[[["input_1",0,0,{}]]]},{"class_name":"LSTM","config":{"name":"lstm_1","trainable":true,"dtype":"float32","return_sequences":false,"return_state":false,"go_backwards":false,"stateful":false,"unroll":false,"time_major":false,"units":64,"activation":"tanh","recurrent_activation":"sigmoid","use_bias":true,"kernel_initializer":{"class_name":"GlorotUniform","config":{"seed":null},"shared_object_id":6},"recurrent_initializer":{"class_name":"Orthogonal","config":{"gain":1.0,"seed":null},"shared_object_id":7},"bias_initializer":{"class_name":"Zeros","config":{},"shared_object_id":8},"unit_forget_bias":true,"kernel_regularizer":null,"recurrent_regularizer":null,"bias_regularizer":null,"activity_regularizer":null,"kernel_constraint":null,"recurrent_constraint":null,"bias_constraint":null,"dropout":0.2,"recurrent_dropout":0.2,"implementation":1},"name":"lstm_1","inbound_nodes":[[["lstm",0,0,{}]]]},{"class_name":"Dense","config":{"name":"dense","trainable":true,"dtype":"float32","units":10,"activation":"tanh","use_bias":true,"kernel_initializer":{"class_name":"GlorotUniform","config":{"seed":null}},"bias_initializer":{"class_name":"Zeros","config":{}},"kernel_regularizer":null,"bias_regularizer":null,"activity_regularizer":null,"kernel_constraint":null,"bias_constraint":null},"name":"dense","inbound_nodes":[[["lstm_1",0,0,{}]]]},{"class_name":"Dense","config":{"name":"dense_1","trainable":true,"dtype":"float32","units":5,"activation":"tanh","use_bias":true,"kernel_initializer":{"class_name":"GlorotUniform","config":{"seed":null}},"bias_initializer":{"class_name":"Zeros","config":{}},"kernel_regularizer":null,"bias_regularizer":null,"activity_regularizer":null,"kernel_constraint":null,"bias_constraint":null},"name":"dense_1","inbound_nodes":[[["dense",0,0,{}]]]},{"class_name":"Dense","config":{"name":"dense_2","trainable":true,"dtype":"float32","units":1,"activation":"sigmoid","use_bias":true,"kernel_initializer":{"class_name":"GlorotUniform","config":{"seed":null}},"bias_initializer":{"class_name":"Zeros","config":{}},"kernel_regularizer":null,"bias_regularizer":null,"activity_regularizer":null,"kernel_constraint":null,"bias_constraint":null},"name":"dense_2","inbound_nodes":[[["dense_1",0,0,{}]]]}],"input_layers":[["input_1",0,0]],"output_layers":[["dense_2",0,0]]},"keras_version":"2.10.0","backend":"tensorflow"},"image_data_format":"channels_last","input_shapes":[[null,52]],"output_shapes":[[1]],"tests":[{"inputs":[{"shape":[32,52],"values":["…","…","…","…","…","…","…","…","…"]}],"outputs":[{"shape":[1],"values":["7NN9Pw=="]}]}],"trainable_params":{"lstm":{"weights":["…","…","…","…","…","…","…","…","…","…","…","…","…","…","…","…","…","…","…","…","…","…","…","…","…","…","…","…","…","…","…","…","…","…","…","…","…","…","…","…","…","…","…","…","…","…","…","…","…","…","…","…","…","…","…","…","…","…","…","…","…","…","…","…","…","…","…","…","…","…"],"recurrent_weights":["…","…","…","…","…","…","…","…","…","…","…","…","…","…","…","…","…","…","…","…","…","…","…","…","…","…","…","…","…","…","…","…","…","…","…","…","…","…","…","…","…","…","…","…","…","…","…","…","…","…","…","…","…","…","…","…","…","…","…","…","…","…","…","…","…","…","…","…","…","…","…","…","…","…","…","…","…","…","…","…","…","…","…","…","…","…"],"bias":["…","…"]},"lstm_1":{"weights":["…","…","…","…","…","…","…","…","…","…","…","…","…","…","…","…","…","…","…","…","…","…","…","…","…","…","…","…","…","…","…","…","…","…","…","…","…","…","…","…","…","…","…","…","…","…","…","…","…","…","…","…","…","…","…","…","…","…","…","…","…","…","…","…","…","…","…","…","…","…","…","…","…","…","…","…","…","…","…","…","…","…","…","…","…","…"],"recurrent_weights":["…","…","…","…","…","…","…","…","…","…","…","…","…","…","…","…","…","…","…","…","…","…","…","…","…","…","…","…","…","…","…","…","…","…","…","…","…","…","…","…","…","…","…","…","…","…","…","…","…","…","…","…","…","…","…","…","…","…","…","…","…","…","…","…","…","…","…","…","…","…","…","…","…","…","…","…","…","…","…","…","…","…","…","…","…","…"],"bias":["…","…"]},"dense":{"weights":["…","…","…","…"],"bias":["Psg+PuFnnz4gYDq/Fmr0PtYky75O9LM+AOQnP5ph8z1ERW0/YmCZPw=="]},"dense_1":{"weights":["…"],"bias":["k4S9PXh85D20/Pk+P6YjPzTBuT4="]},"dense_2":{"weights":["jVtBP97VGb+aj6I/F0q7v7DhFr8="],"bias":["p4MqPg=="]}},"hash":"c30a17e1b6a891d8fa503103006d96bd7a5ee5c5a7f169d72d9cde2821676ca6"}